…
"\n}\nUser Defined Parameters:\n{\n \"sig\": 0.1,\n \"deltae\": 0.05,\n \"deltah\": 0.05,\n \"rho\": 0.06,\n \"r\": 0.05,\n \"a\": 0.11,\n \"ah\": 0.07,\n \"kappa\": 2\n}\n\n================================State Variables=================================\ne: [0.0, 1.0]\n\n=====================================Agents=====================================\n\n================================Agent Conditions================================\n\n==============================Endogenous Variables==============================\nEndogenous Variable Name: q\nEndogVar(\n  (model): Sequential(\n    (linear_0): Linear(in_features=1, out_features=30, bias=True)\n    (activation_0): Tanh()\n    (linear_1): Linear(in_features=30, out_features=30, bias=True)\n    (activation_1): Tanh()\n    (linear_2): Linear(in_features=30, out_features=30, bias=True)\n    (activation_2): Tanh()\n    (linear_3): Linear(in_features=30, out_features=30, bias=True)\n    (activation_3): Tanh()\n    (final_layer): Linear(in_features=30, out_features=1, bias=True)\n    (positive_act): Softplus(beta=1.0, threshold=20.0)\n  )\n)\nNum parameters: 2881\n--------------------------------------------------------------------------------\nEndogenous Variable Name: psi\nEndogVar(\n  (model): Sequential(\n    (linear_0): Linear(in_features=1, out_features=30, bias=True)\n    (activation_0): Tanh()\n    (linear_1): Linear(in_features=30, out_features=30, bias=True)\n    (activation_1): Tanh()\n    (linear_2): Linear(in_features=30, out_features=30, bias=True)\n    (activation_2): Tanh()\n    (linear_3): Linear(in_features=30, out_features=30, bias=True)\n    (activation_3): Tanh()\n    (final_layer): Linear(in_features=30, out_features=1, bias=True)\n    (positive_act): Softplus(beta=1.0, threshold=20.0)\n  )\n)\nNum parameters: 2881\n--------------------------------------------------------------------------------\n\n========================Endogenous Variables Conditions=========================\nendogvar_q_cond_q_min: q(SV)=(2*ah*kappa + (kappa*r)**2 + 1)**0.5 - kappa*r with LHS evaluated at SV=[[0
…
